…
## loss
# [batch_size, seq_len, d_k]
# logits.shape: torch.Size([12, 59, 152064])
# self.ignore_index: -100
# 58 = 59 - 1
# shift_logits.shape: torch.Size([12, 58, 152064])
# shift_labels.shape: torch.Size([12, 58])
# (shift_logits.view(-1, shift_logits.size(-1))).shape: torch.Size([12*58, 152064])
# (shift_labels.view(-1)).shape: torch.Size([1, 12*58])






# find_all_linear_names
# 找出所有全连接层，为所有全连接添加adapter
# cls = bnb.nn.Linear4bit
# name: 'transformer.h.0.attn.c_attn'
# names: ['transformer', 'h', '0', 'attn', 'c_attn']
# lora_module_names: {'w1', 'c_attn', 'w2', 'c_proj'}
# (need remove)(lm_head): Linear(in_features=5120, out_features=152064, bias=False)

# OrderedDict
QWenLMHeadModel(
  (transformer): QWenModel(
    (wte): Embedding(152064, 5120)
    (drop): Dropout(p=0.0, inplace=False)
    (rotary_emb): RotaryEmbedding()
    (h): ModuleList(
      (0-39): 40 x QWenBlock(
        (ln_1): RMSNorm()
        (attn): QWenAttention(
          (c_attn): Linear4bit(in_features=5120, out_features=15360, bias=True)
          (c_proj): Linear4bit(in_features=5120, out_features=5120, bias=False)
          (attn_dropout): Dropout(p=0.0, inplace=False)
        )
        (ln_2): RMSNorm()
        (mlp): QWenMLP(
          (w1): Linear4bit(in_features=5120, out_features=13696, bias=False)
          (w2): Linear4bit(in_features=5120, out_features=13696, bias=False)
          (c_proj): Linear4bit(in_features=13696, out_features=5120, bias=False)
        )
      )
    )
    (ln_f): RMSNorm()
  )
  (lm_head): Linear(in_features=5120, out_features=152064, bias=False)
)

# OrderedDict
QWenModel(
  (wte): Embedding(152064, 5120)
  (drop): Dropout(p=0.0, inplace=False)
  (rotary_emb): RotaryEmbedding()
  (h): ModuleList(
    (0-39): 40 x QWenBlock(
      (ln_1): RMSNorm()
      (attn): QWenAttention(
        (c_attn): Linear4bit(in_features=5120, out_features=15360, bias=True)
        (c_proj): Linear4bit(in_features=5120, out_features=5120, bias=False)
        (attn_dropout): Dropout(p=0.0, inplace=False)
      )
      (ln_2): RMSNorm()
      (mlp): QWenMLP(
        (w1): Linear4bit(in_features=5120, out_features=13696, bias=False)
        (w2): Linear4bit(in_features=5120, out_features=13696, bias=False)
        (c_proj): Linear4bit(in_features=13696, out_features=5120, bias=False)
      )
    )
  )
  (ln_f): RMSNorm()
)



TransformerLanguageModel(
  (token_embedding_lookup_table): Embedding(100071, 64)
  (transformer_blocks): Sequential(
    (0-11): TransformerBlock(
      (multi_head_attention_layer): MultiHeadAttention(
        (heads): ModuleList(
          (0-7): 8 x Attention(
            (key_layer): Linear(in_features=64, out_features=16, bias=False)
            (query_layer): Linear(in_features=64, out_features=16, bias=False)
            (value_layer): Linear(in_features=64, out_features=16, bias=False)
            (dropout_layer): Dropout(p=0.1, inplace=False)
          )
        )
        (projection_layer): Linear(in_features=64, out_features=64, bias=True)
        (dropout_layer): Dropout(p=0.1, inplace=False)
      )
      (feed_forward_layer): FeedForward(
        (ffn): Sequential(
          (0): Linear(in_features=64, out_features=256, bias=True)
          (1): ReLU()
          (2): Linear(in_features=256, out_features=64, bias=True)
          (3): Dropout(p=0.1, inplace=False)
        )
      )
      (layer_norm_1): LayerNorm((64,), eps=1e-05, elementwise_affine=True)
      (layer_norm_2): LayerNorm((64,), eps=1e-05, elementwise_affine=True)
    )
    (12): LayerNorm((64,), eps=1e-05, elementwise_affine=True)
  )
  (language_model_output_linear_layer): Linear(in_features=64, out_features=100070, bias=True)
)